ai_attribut_contribution/results/models/model.pt (torch, 4925 bytes, 6 tensors)

model.0.weight f4 [16, 22]
000000 da f3 ce 3e 52 ec 71 bd c5 84 fb 3c b2 e1 b5 3e
       0.4042042 -0.059063263 0.030702958 0.35523754
000010 35 14 39 bd b0 46 62 3b a9 3a 92 3e 04 14 9f 3e
       -0.045185287 0.0034526996 0.2856038 0.31069958
000020 c7 e9 b0 3e 5d c2 20 3e 95 39 86 3e f2 46 7a be
       0.34553358 0.15699144 0.26215807 -0.24441126
000030 e3 50 82 bd 81 0c 2f 3e 5a 67 56 bf 09 c2 20 3f
       -0.06363084 0.17094614 -0.8375145 0.62796074
000040 77 58 5d be f2 24 62 3e 00 64 e0 3e cd 96 64 bf
       -0.21615778 0.22084406 0.43826294 -0.89292604
000050 a0 60 27 be 46 96 af be 75 21 1f 3e 51 3f a5 3d
       -0.16345453 -0.34294337 0.15540107 0.08068717
000060 0a 10 e7 3b 7f 55 01 3b 05 34 dc 3d 92 fd 32 3e
       0.0070514726 0.0019734798 0.107521094 0.17479542
000070 5e ca f7 bd f3 c3 de 3c 49 fc 88 be bd 9e 93 be
       -0.12099145 0.027193045 -0.26754978 -0.28832045
000080 95 c2 b8 3d 6a ec b1 3d 0b 62 9d bd 52 08 92 be
       0.090214886 0.086876705 -0.07684716 -0.28521973
000090 15 c1 98 3d 7b 03 85 bd 70 6a b6 3d 00 ad d9 bc
       0.074587025 -0.064948045 0.0890702 -0.02657175
0000a0 a9 54 7d 3c 64 a9 32 3d be bb 9d bd 9c 40 8f be
       0.015462079 0.043618575 -0.077018246 -0.2797898
0000b0 d7 df 05 3e cd 95 87 be 89 ef 7d 3e c4 7e 87 bc
       0.1307367 -0.26481476 0.24798407 -0.016539939
0000c0 7e d4 9f bd c5 36 6e 3d d8 82 03 bd f2 fd 63 be
       -0.078042015 0.0581577 -0.032107204 -0.22264841
0000d0 b8 7b 53 3d 59 91 30 be 5e b7 72 3e d9 41 77 bd
       0.05163166 -0.17242946 0.23702762 -0.06036553
0000e0 b5 25 ab 3c 02 c3 0e bf 4f d9 9f 3f 9d aa 45 3f
       0.020892004 -0.5576631 1.2488192 0.7721346
0000f0 3c 56 43 3e 54 a7 7e 3e 29 37 e2 3c 86 30 06 3f
       0.19075865 0.24868518 0.027614193 0.5241779
000100 00 bf c6 3d c0 e5 8f be b5 e1 4e be 77 df 60 be
       0.09704399 -0.28104973 -0.20203288 -0.21960245
000110 79 dc 5f be be fb 79 be c5 84 26 be d3 30 1a be
       -0.21861447 -0.24412438 -0.16261585 -0.15057687
000120 de 3c 1a bf fb cb 44 be 57 5e 21 be d4 8c 27 be
       -0.60249126 -0.19218437 -0.15758644 -0.16362315
000130 c9 ca b4 be 53 e6 e1 bc e3 79 aa 3e d0 98 0d bf
       -0.35310963 -0.027575647 0.33296117 -0.553113
000140 0a 1d 8e 3f 24 ba b0 be b3 08 9c 3c 42 1b 69 bc
       1.1102612 -0.34517014 0.019047117 -0.01422769
000150 fb eb dd be 96 e6 2a 3f e9 e6 05 3e 84 ac 8a 3e
       -0.433441 0.66758096 0.13076366 0.27084744
000160 54 de 14 bd 89 5b 46 be 12 ad 72 3e d0 e0 9d bd
       -0.03634484 -0.19370855 0.23698834 -0.07708895
000170 3e 6b 6e be 55 c0 44 be 48 0c 1a be c6 8d 34 bd
       -0.23283097 -0.19213994 -0.15043747 -0.04408052
000180 8d c7 cc 3e 64 03 bb 3e 2a aa c5 3e c0 d3 bc 3e
       0.39995995 0.36526024 0.38606387 0.36880302
000190 86 aa 7a bc 41 fd cf 3d 8a 30 81 3d 47 ea 32 be
       -0.015299445 0.10155726 0.06308086 -0.17472182
0001a0 81 37 48 be d1 f2 20 bc a5 e4 2e 3e 50 82 22 be
       -0.19552423 -0.009823517 0.17079408 -0.15870023
0001b0 a0 90 3d be 86 d5 00 bf 4a 67 47 be cc 58 da bd
       -0.18512201 -0.5032581 -0.19472995 -0.10661468
0001c0 26 a9 05 39 5c 17 6b be e0 0b 42 3c ae d6 1a be
       0.00012746881 -0.2295813 0.0118436515 -0.15120956
0001d0 3f 5b bd be 07 d8 d0 bd 11 18 c5 be fc 8f 5c bd
       -0.36983678 -0.10197454 -0.38494924 -0.05384825
0001e0 5d 37 ac be b3 63 d0 3d 0f ed 08 3e 54 d7 aa be
       -0.3363599 0.10175266 0.1337168 -0.33367407
0001f0 37 a5 7c 3f 36 f5 ca be 32 12 58 be f9 09 85 be
       0.986896 -0.39640206 -0.21100691 -0.2598417
000200 41 ba f4 be 49 c3 f4 3e 7d e8 02 3e 81 e0 b7 3e
       -0.4779835 0.4780524 0.12784 0.3591347
000210 d9 15 30 bd c8 c8 d9 be b2 03 61 3e b9 7a 64 be
       -0.042989586 -0.42535996 0.21974066 -0.2231244
000220 3d c5 f8 bd 8c e0 6b be 32 0d ba bd 50 3e 28 bd
       -0.12146995 -0.23034877 -0.09084548 -0.04107505
000230 40 84 04 3f c7 9f 20 3f ac 4c b4 3e 42 06 98 3e
       0.517643 0.627438 0.35214746 0.29692274
000240 ec 18 ab 3e ea 0f 18 3d 1e 39 14 3e e4 2e 12 be
       0.3341745 0.03712455 0.14474913 -0.142757
000250 9f b5 25 bc 55 a5 ce bd d1 1c b0 3e 37 d0 92 be
       -0.010114103 -0.10090128 0.34396985 -0.2867448
000260 f1 27 e2 be 89 d4 13 bf 40 c1 d9 bc 9a f4 bd bd
       -0.44171098 -0.5774618 -0.026581407 -0.0927517
000270 d9 67 07 bd ca 9b 12 be 08 14 eb bc 99 aa 57 bd
       -0.03305802 -0.14317241 -0.028696075 -0.05265293
000280 93 69 f0 bd 59 9a 3d bd 44 90 7e 3e a3 dd c2 3d
       -0.11738887 -0.046289776 0.2485972 0.0951493
000290 d9 20 3a 3d cd 99 4f 3e 32 0d 1d 3e c8 db 38 3d
       0.045441482 0.20273514 0.15337065 0.045131475
0002a0 ea 79 7b 3e 02 df 8a be 58 7d 86 3d 0f e1 1c be
       0.24558225 -0.27123266 0.06566876 -0.15320228
0002b0 51 19 39 3e c0 7e d0 be 9f 67 92 3d 28 78 31 bd
       0.18076064 -0.40721703 0.071486704 -0.04332748
0002c0 0b a8 46 be 61 2f 4b be 46 4e a5 3b 32 21 b4 bd
       -0.19400041 -0.19842292 0.0050447313 -0.08795394
0002d0 0a d9 89 bd 3e 4d 94 be af 17 14 bf 26 bd 48 be
       -0.0673085 -0.2896518 -0.5784864 -0.19603404
0002e0 84 6d 82 bc e1 d9 7e be 6e d2 8c be c8 2e 2a 3e
       -0.015921362 -0.24887802 -0.27504295 0.16619408
0002f0 89 51 42 3e 65 e8 27 bf 30 0f 7b 3f 89 a9 bc be
       0.18976416 -0.6558898 0.9807005 -0.36848095
000300 f8 86 13 bd 85 fa 7f be dc e8 cc be d5 cc 17 3f
       -0.036017388 -0.2499791 -0.40021408 0.59296924
000310 3a 19 25 3e 58 17 5e 3e fa 9f d8 bd 99 29 cc 3e
       0.16122904 0.21688592 -0.10577388 0.39875486
000320 7c 1a 43 bf 83 51 e4 3e b0 1f 42 be 75 e5 e7 bd
       -0.76212287 0.44593439 -0.189574 -0.11323062
000330 b6 b4 13 bf a8 87 11 3f 1e d2 52 be 77 36 d7 be
       -0.5769762 0.5684762 -0.20587966 -0.4203374
000340 1c 64 e8 be 6d 94 0d bd f1 86 2d 3d 63 f2 21 bf
       -0.45388877 -0.034565378 0.04236502 -0.6326048
000350 a1 1e 61 3f d0 29 d6 3e 79 ce 99 be 9b 72 40 be
       0.8793736 0.41828775 -0.3004034 -0.18793719
000360 3c 62 22 bf a8 83 71 bd 81 1c f6 3e e2 f9 eb 3e
       -0.63431144 -0.058963448 0.48068622 0.46089083
000370 83 ad ac 3e 38 f5 94 bc 67 12 06 3e 14 b5 68 bd
       0.3372613 -0.018183336 0.13092957 -0.056813315
000380 45 bb 39 be 27 88 6e bd 65 74 6f be 77 4d 4b bd
       -0.18137844 -0.058235314 -0.23384245 -0.049634423
000390 b8 10 64 3e 5d a2 52 3e 2f 36 23 3d 1d ff 46 bd
       0.22272003 0.20569749 0.039846595 -0.04858314
0003a0 9a 15 5b 3e 64 15 27 be 6f be 57 3e f2 bc 70 bb
       0.21394959 -0.16316754 0.21068738 -0.0036733714
0003b0 1a ea ef 3d c8 9e 1c be 4f 62 6b 3e 82 f7 e0 3c
       0.11714573 -0.15294945 0.2298672 0.02746177
0003c0 7a ef 2c 3e 51 be c4 3d 40 42 66 bc 02 d5 3a be
       0.16888228 0.096066125 -0.014053881 -0.18245319
0003d0 02 23 da bb 26 3e 29 3e 58 5c 78 bd 05 71 03 bd
       -0.0066570053 0.16527614 -0.06063494 -0.032090206
0003e0 e7 fc da 3e 78 b6 f5 3d 54 38 42 3d 8f 69 a2 bd
       0.42771074 0.11997694 0.047417 -0.0793029
0003f0 b4 9d 8d be 72 f8 09 bf e3 af 77 be 55 a6 8c 3d
       -0.2765938 -0.5389472 -0.24188189 0.06867663

model.0.bias f4 [16]
000000 ba 20 c0 be d8 fd 89 be 74 01 0c 3e e5 2d 27 3f
       -0.37524968 -0.2695148 0.1367243 0.65304404
000010 59 ab 00 bf 6a 72 ef 3e fc 5d 1a bf 24 a9 81 be
       -0.50261456 0.46766979 -0.6029966 -0.25324357
000020 ad 4f 25 3f 18 4c 96 3e 65 c8 25 3b fd b6 18 3e
       0.645747 0.2935493 0.0025296446 0.14913554
000030 a5 2c 0a bf 8b b9 d4 be 14 e4 13 3f a9 31 c6 3e
       -0.5397437 -0.41547808 0.57769895 0.38709763

model.2.weight f4 [8, 16]
000000 95 e5 12 bf 46 d9 ed 3d 05 01 45 3e 1b 8a 4e 3f
       -0.57381564 0.11613707 0.1923867 0.8067948
000010 1a 94 97 be 0d c3 b7 3e cd 64 ad be 06 ec da 39
       -0.2960518 0.35891 -0.33865967 0.0004175605
000020 bc 47 28 3f dc fb 0f 3f 6d db 9d 3e dc 2b a8 be
       0.6573446 0.5624368 0.3083147 -0.32845962
000030 bb 2b 1c bf 4c 17 a1 be 5a 01 26 3e 7c 88 04 3f
       -0.6100423 -0.31463087 0.16211453 0.5177076
000040 d4 59 d6 be e6 3a ac bd ca 27 a4 3e 5c 46 4a 3f
       -0.41865408 -0.084096715 0.32061607 0.7901361
000050 6f 82 3f 3c 56 d9 b2 3e 1b 51 10 be a8 13 49 3c
       0.011688813 0.3493144 -0.1409344 0.012272753
000060 32 0f d9 3e bc 03 84 3e 33 8f 25 3e fb fa 6a bc
       0.42394406 0.257841 0.16167907 -0.014342065
000070 f6 b2 05 bf 2a 9f be be 45 cc f5 3e 98 94 8c 3e
       -0.522262 -0.37230808 0.48007408 0.27457118
000080 ba a6 90 38 c4 47 25 be f4 a1 58 3e 50 d6 86 be
       6.89751e-05 -0.16140658 0.2115553 -0.26335382
000090 27 e4 03 3f 50 6f 66 3d 11 be 2a 3f 59 9e 21 3f
       0.5152001 0.0562585 0.6669627 0.63132244
0000a0 a2 32 7a bd 9d 41 2c bf 3d 27 f0 3e 3a c3 29 be
       -0.061083443 -0.6728762 0.46904936 -0.1657838
0000b0 55 f9 97 3e 93 f2 05 be 44 d8 ce 3e e5 34 3a 3e
       0.29682413 -0.13080816 0.40399373 0.1818424
0000c0 2c 11 54 3f 35 8a 97 3d 7a c6 41 be 72 59 0d bf
       0.828387 0.07399408 -0.18923369 -0.5521461
0000d0 03 26 2a bd 6b e1 13 bf 1a e1 0c 3e 2a df 4c be
       -0.041540157 -0.57765836 0.13757744 -0.20007005
0000e0 2f fe 3b bf fe 7b 25 bf 05 1e c9 3d 4b 94 a8 3d
       -0.7343473 -0.6464232 0.09820179 0.0823141
0000f0 48 f7 22 3f fb cd e4 3e f1 d0 12 bf d6 f6 9f be
       0.6365857 0.446884 -0.5735007 -0.31243008
000100 22 16 8d 3d 30 c2 10 3a d8 ef 91 3e f0 e9 22 be
       0.06888987 0.00055221 0.285033 -0.15909553
000110 97 b0 0b 3f e9 ba 92 3d 93 88 0a 3f dd d3 ac 3e
       0.5456633 0.071645565 0.54114646 0.3375539
000120 d1 f9 cf bd 53 a4 f0 be f1 65 c1 3e 3e 2f 9e be
       -0.101550706 -0.4700037 0.37773088 -0.30895418
000130 b1 27 34 3e 87 4a 62 be d4 10 8f 3e 29 b6 ec 3e
       0.17593266 -0.22098742 0.27942526 0.46232727
000140 79 73 c9 3e 85 40 c0 3e b3 19 2a be 2d ed e6 3c
       0.3934591 0.37549224 -0.16611366 0.028189266
000150 79 3c 08 bf 89 8b 88 bd 95 de 3d bf 2d 47 a7 be
       -0.53217274 -0.06667239 -0.7416776 -0.3267149
000160 28 4f 05 3e 1c 5f 1d 3f 86 11 b9 be ac 30 cc 3e
       0.13018477 0.6147325 -0.36146182 0.39880884
000170 5c c4 36 be 00 3f 74 bd 82 7a a2 bd ca af 10 be
       -0.17848343 -0.059630394 -0.07933523 -0.14129558
000180 bd f8 ca 3e a0 ac 54 3d d5 c2 c4 be bb 1e 4b be
       0.39642897 0.05192244 -0.38429895 -0.19835941
000190 57 6a e0 bd 35 b3 9e be 26 81 97 bd c2 b0 db be
       -0.10957783 -0.309961 -0.0739768 -0.42908293
0001a0 3a 13 18 bd 70 3a c2 bd e0 08 a8 be d2 13 2b 3e
       -0.03712771 -0.09483802 -0.3281927 0.1670678
0001b0 2d 46 05 be 22 b4 4f bd d5 3f f4 bd fd e3 d4 be
       -0.13015051 -0.050708897 -0.119262375 -0.4158019
0001c0 e6 e6 f7 3d 17 2e ce 3e 94 46 e2 be 59 4b 2d 3e
       0.12104587 0.4026954 -0.44194472 0.16923274
0001d0 be 51 17 bf af 00 bf 3c e0 18 dc be f2 77 23 bf
       -0.59109104 0.023315756 -0.42987728 -0.638549
0001e0 3b 2a 8b 3e 70 15 0c 3f 13 38 9b be 24 94 fd 3e
       0.27180657 0.5472021 -0.3031622 0.49527085
0001f0 1a ba d6 be 13 37 57 3e 7c eb ab bd 81 c4 a2 be
       -0.4193886 0.21017103 -0.083945245 -0.31790546

model.2.bias f4 [8]
000000 7a d8 c9 3e 35 87 13 3f f7 a9 82 bd ea ad 1e bf
       0.3942297 0.57628185 -0.063800745 -0.6198412
000010 d6 b2 a1 be 36 ce 80 3e ee 4f ca be f3 7b 79 3d
       -0.31581753 0.25157326 -0.39514107 0.060909223

model.4.weight f4 [3, 8]
000000 91 ff 39 3f d3 a7 30 3f e3 87 8d 3f 3a 03 c9 be
       0.7265559 0.6900608 1.1057094 -0.39260274
000010 98 d7 a3 3f f2 a1 e9 bf ae fe 7e bf 45 60 ac bf
       1.2800169 -1.8252547 -0.9960736 -1.3466879
000020 28 21 ab 3f 02 53 93 3f 50 88 65 bf f5 50 90 bf
       1.3369493 1.1509707 -0.8966112 -1.1274706
000030 fd 5a 5d bf 73 f1 03 3f 10 ad 83 3e 5b d8 50 3f
       -0.8646696 0.515403 0.25717974 0.8158013
000040 3f 09 c5 bf df 5d b9 bf 5f 55 0c bf c5 ec cb 3f
       -1.5393447 -1.4481772 -0.54817766 1.5931631
000050 db 60 3a bf a6 4e ae 3e 03 1a 99 3f 59 42 03 3f
       -0.7280404 0.3404438 1.1961063 0.51273113

model.4.bias f4 [3]
000000 d7 8c c3 3d aa d4 b5 be df d9 ca bd
       0.095483474 -0.35513812 -0.09904837
